ir_version: 7
producer_name: "pytorch"
producer_version: "1.12.0"
graph {
  node {
    input: "image"
    output: "onnx::Reshape_5"
    name: "MaxPool_0"
    op_type: "MaxPool"
    attribute {
      name: "ceil_mode"
      i: 0
      type: INT
    }
    attribute {
      name: "kernel_shape"
      ints: 2
      ints: 2
      type: INTS
    }
    attribute {
      name: "pads"
      ints: 0
      ints: 0
      ints: 0
      ints: 0
      type: INTS
    }
    attribute {
      name: "strides"
      ints: 2
      ints: 2
      type: INTS
    }
    doc_string: "/usr/local/lib/python3.8/dist-packages/torch/nn/functional.py(782): _max_pool2d\n/usr/local/lib/python3.8/dist-packages/torch/_jit_internal.py(423): fn\n./gen_mnist_onnx.py(24): forward\n/usr/local/lib/python3.8/dist-packages/torch/nn/modules/module.py(1118): _slow_forward\n/usr/local/lib/python3.8/dist-packages/torch/nn/modules/module.py(1130): _call_impl\n/usr/local/lib/python3.8/dist-packages/torch/jit/_trace.py(118): wrapper\n/usr/local/lib/python3.8/dist-packages/torch/jit/_trace.py(127): forward\n/usr/local/lib/python3.8/dist-packages/torch/nn/modules/module.py(1130): _call_impl\n/usr/local/lib/python3.8/dist-packages/torch/jit/_trace.py(1175): _get_trace_graph\n/usr/local/lib/python3.8/dist-packages/torch/onnx/utils.py(517): _trace_and_get_graph_from_model\n/usr/local/lib/python3.8/dist-packages/torch/onnx/utils.py(602): _create_jit_graph\n/usr/local/lib/python3.8/dist-packages/torch/onnx/utils.py(727): _model_to_graph\n/usr/local/lib/python3.8/dist-packages/torch/onnx/utils.py(1074): _export\n/usr/local/lib/python3.8/dist-packages/torch/onnx/utils.py(163): export\n/usr/local/lib/python3.8/dist-packages/torch/onnx/__init__.py(350): export\n./gen_mnist_onnx.py(186): main\n./gen_mnist_onnx.py(195): <module>\n"
  }
  node {
    output: "onnx::Reshape_6"
    name: "Constant_1"
    op_type: "Constant"
    attribute {
      name: "value"
      t {
        dims: 2
        data_type: 7
        raw_data: "\377\377\377\377\377\377\377\377\304\000\000\000\000\000\000\000"
      }
      type: TENSOR
    }
    doc_string: "./gen_mnist_onnx.py(25): forward\n/usr/local/lib/python3.8/dist-packages/torch/nn/modules/module.py(1118): _slow_forward\n/usr/local/lib/python3.8/dist-packages/torch/nn/modules/module.py(1130): _call_impl\n/usr/local/lib/python3.8/dist-packages/torch/jit/_trace.py(118): wrapper\n/usr/local/lib/python3.8/dist-packages/torch/jit/_trace.py(127): forward\n/usr/local/lib/python3.8/dist-packages/torch/nn/modules/module.py(1130): _call_impl\n/usr/local/lib/python3.8/dist-packages/torch/jit/_trace.py(1175): _get_trace_graph\n/usr/local/lib/python3.8/dist-packages/torch/onnx/utils.py(517): _trace_and_get_graph_from_model\n/usr/local/lib/python3.8/dist-packages/torch/onnx/utils.py(602): _create_jit_graph\n/usr/local/lib/python3.8/dist-packages/torch/onnx/utils.py(727): _model_to_graph\n/usr/local/lib/python3.8/dist-packages/torch/onnx/utils.py(1074): _export\n/usr/local/lib/python3.8/dist-packages/torch/onnx/utils.py(163): export\n/usr/local/lib/python3.8/dist-packages/torch/onnx/__init__.py(350): export\n./gen_mnist_onnx.py(186): main\n./gen_mnist_onnx.py(195): <module>\n"
  }
  node {
    input: "onnx::Reshape_5"
    input: "onnx::Reshape_6"
    output: "onnx::Gemm_7"
    name: "Reshape_2"
    op_type: "Reshape"
    doc_string: "./gen_mnist_onnx.py(25): forward\n/usr/local/lib/python3.8/dist-packages/torch/nn/modules/module.py(1118): _slow_forward\n/usr/local/lib/python3.8/dist-packages/torch/nn/modules/module.py(1130): _call_impl\n/usr/local/lib/python3.8/dist-packages/torch/jit/_trace.py(118): wrapper\n/usr/local/lib/python3.8/dist-packages/torch/jit/_trace.py(127): forward\n/usr/local/lib/python3.8/dist-packages/torch/nn/modules/module.py(1130): _call_impl\n/usr/local/lib/python3.8/dist-packages/torch/jit/_trace.py(1175): _get_trace_graph\n/usr/local/lib/python3.8/dist-packages/torch/onnx/utils.py(517): _trace_and_get_graph_from_model\n/usr/local/lib/python3.8/dist-packages/torch/onnx/utils.py(602): _create_jit_graph\n/usr/local/lib/python3.8/dist-packages/torch/onnx/utils.py(727): _model_to_graph\n/usr/local/lib/python3.8/dist-packages/torch/onnx/utils.py(1074): _export\n/usr/local/lib/python3.8/dist-packages/torch/onnx/utils.py(163): export\n/usr/local/lib/python3.8/dist-packages/torch/onnx/__init__.py(350): export\n./gen_mnist_onnx.py(186): main\n./gen_mnist_onnx.py(195): <module>\n"
  }
  node {
    input: "onnx::Gemm_7"
    input: "fc1.weight"
    input: "fc1.bias"
    output: "x"
    name: "Gemm_3"
    op_type: "Gemm"
    attribute {
      name: "alpha"
      f: 1.0
      type: FLOAT
    }
    attribute {
      name: "beta"
      f: 1.0
      type: FLOAT
    }
    attribute {
      name: "transB"
      i: 1
      type: INT
    }
    doc_string: "/usr/local/lib/python3.8/dist-packages/torch/nn/modules/linear.py(114): forward\n/usr/local/lib/python3.8/dist-packages/torch/nn/modules/module.py(1118): _slow_forward\n/usr/local/lib/python3.8/dist-packages/torch/nn/modules/module.py(1130): _call_impl\n./gen_mnist_onnx.py(26): forward\n/usr/local/lib/python3.8/dist-packages/torch/nn/modules/module.py(1118): _slow_forward\n/usr/local/lib/python3.8/dist-packages/torch/nn/modules/module.py(1130): _call_impl\n/usr/local/lib/python3.8/dist-packages/torch/jit/_trace.py(118): wrapper\n/usr/local/lib/python3.8/dist-packages/torch/jit/_trace.py(127): forward\n/usr/local/lib/python3.8/dist-packages/torch/nn/modules/module.py(1130): _call_impl\n/usr/local/lib/python3.8/dist-packages/torch/jit/_trace.py(1175): _get_trace_graph\n/usr/local/lib/python3.8/dist-packages/torch/onnx/utils.py(517): _trace_and_get_graph_from_model\n/usr/local/lib/python3.8/dist-packages/torch/onnx/utils.py(602): _create_jit_graph\n/usr/local/lib/python3.8/dist-packages/torch/onnx/utils.py(727): _model_to_graph\n/usr/local/lib/python3.8/dist-packages/torch/onnx/utils.py(1074): _export\n/usr/local/lib/python3.8/dist-packages/torch/onnx/utils.py(163): export\n/usr/local/lib/python3.8/dist-packages/torch/onnx/__init__.py(350): export\n./gen_mnist_onnx.py(186): main\n./gen_mnist_onnx.py(195): <module>\n"
  }
  node {
    input: "x"
    output: "onnx::Gemm_9"
    name: "Relu_4"
    op_type: "Relu"
    doc_string: "/usr/local/lib/python3.8/dist-packages/torch/nn/functional.py(1457): relu\n./gen_mnist_onnx.py(27): forward\n/usr/local/lib/python3.8/dist-packages/torch/nn/modules/module.py(1118): _slow_forward\n/usr/local/lib/python3.8/dist-packages/torch/nn/modules/module.py(1130): _call_impl\n/usr/local/lib/python3.8/dist-packages/torch/jit/_trace.py(118): wrapper\n/usr/local/lib/python3.8/dist-packages/torch/jit/_trace.py(127): forward\n/usr/local/lib/python3.8/dist-packages/torch/nn/modules/module.py(1130): _call_impl\n/usr/local/lib/python3.8/dist-packages/torch/jit/_trace.py(1175): _get_trace_graph\n/usr/local/lib/python3.8/dist-packages/torch/onnx/utils.py(517): _trace_and_get_graph_from_model\n/usr/local/lib/python3.8/dist-packages/torch/onnx/utils.py(602): _create_jit_graph\n/usr/local/lib/python3.8/dist-packages/torch/onnx/utils.py(727): _model_to_graph\n/usr/local/lib/python3.8/dist-packages/torch/onnx/utils.py(1074): _export\n/usr/local/lib/python3.8/dist-packages/torch/onnx/utils.py(163): export\n/usr/local/lib/python3.8/dist-packages/torch/onnx/__init__.py(350): export\n./gen_mnist_onnx.py(186): main\n./gen_mnist_onnx.py(195): <module>\n"
  }
  node {
    input: "onnx::Gemm_9"
    input: "fc2.weight"
    input: "fc2.bias"
    output: "x.3"
    name: "Gemm_5"
    op_type: "Gemm"
    attribute {
      name: "alpha"
      f: 1.0
      type: FLOAT
    }
    attribute {
      name: "beta"
      f: 1.0
      type: FLOAT
    }
    attribute {
      name: "transB"
      i: 1
      type: INT
    }
    doc_string: "/usr/local/lib/python3.8/dist-packages/torch/nn/modules/linear.py(114): forward\n/usr/local/lib/python3.8/dist-packages/torch/nn/modules/module.py(1118): _slow_forward\n/usr/local/lib/python3.8/dist-packages/torch/nn/modules/module.py(1130): _call_impl\n./gen_mnist_onnx.py(28): forward\n/usr/local/lib/python3.8/dist-packages/torch/nn/modules/module.py(1118): _slow_forward\n/usr/local/lib/python3.8/dist-packages/torch/nn/modules/module.py(1130): _call_impl\n/usr/local/lib/python3.8/dist-packages/torch/jit/_trace.py(118): wrapper\n/usr/local/lib/python3.8/dist-packages/torch/jit/_trace.py(127): forward\n/usr/local/lib/python3.8/dist-packages/torch/nn/modules/module.py(1130): _call_impl\n/usr/local/lib/python3.8/dist-packages/torch/jit/_trace.py(1175): _get_trace_graph\n/usr/local/lib/python3.8/dist-packages/torch/onnx/utils.py(517): _trace_and_get_graph_from_model\n/usr/local/lib/python3.8/dist-packages/torch/onnx/utils.py(602): _create_jit_graph\n/usr/local/lib/python3.8/dist-packages/torch/onnx/utils.py(727): _model_to_graph\n/usr/local/lib/python3.8/dist-packages/torch/onnx/utils.py(1074): _export\n/usr/local/lib/python3.8/dist-packages/torch/onnx/utils.py(163): export\n/usr/local/lib/python3.8/dist-packages/torch/onnx/__init__.py(350): export\n./gen_mnist_onnx.py(186): main\n./gen_mnist_onnx.py(195): <module>\n"
  }
  node {
    input: "x.3"
    output: "prediction"
    name: "Softmax_6"
    op_type: "Softmax"
    attribute {
      name: "axis"
      i: 1
      type: INT
    }
    doc_string: "/usr/local/lib/python3.8/dist-packages/torch/nn/functional.py(1834): softmax\n./gen_mnist_onnx.py(29): forward\n/usr/local/lib/python3.8/dist-packages/torch/nn/modules/module.py(1118): _slow_forward\n/usr/local/lib/python3.8/dist-packages/torch/nn/modules/module.py(1130): _call_impl\n/usr/local/lib/python3.8/dist-packages/torch/jit/_trace.py(118): wrapper\n/usr/local/lib/python3.8/dist-packages/torch/jit/_trace.py(127): forward\n/usr/local/lib/python3.8/dist-packages/torch/nn/modules/module.py(1130): _call_impl\n/usr/local/lib/python3.8/dist-packages/torch/jit/_trace.py(1175): _get_trace_graph\n/usr/local/lib/python3.8/dist-packages/torch/onnx/utils.py(517): _trace_and_get_graph_from_model\n/usr/local/lib/python3.8/dist-packages/torch/onnx/utils.py(602): _create_jit_graph\n/usr/local/lib/python3.8/dist-packages/torch/onnx/utils.py(727): _model_to_graph\n/usr/local/lib/python3.8/dist-packages/torch/onnx/utils.py(1074): _export\n/usr/local/lib/python3.8/dist-packages/torch/onnx/utils.py(163): export\n/usr/local/lib/python3.8/dist-packages/torch/onnx/__init__.py(350): export\n./gen_mnist_onnx.py(186): main\n./gen_mnist_onnx.py(195): <module>\n"
  }
  name: "torch_jit"
  initializer {
    dims: 128
    dims: 196
    data_type: 1
    name: "fc1.weight"
    raw_data: "…"
  }
  initializer {
    dims: 128
    data_type: 1
    name: "fc1.bias"
    raw_data: "…"
  }
  initializer {
    dims: 10
    dims: 128
    data_type: 1
    name: "fc2.weight"
    raw_data: "…"
  }
  initializer {
    dims: 10
    data_type: 1
    name: "fc2.bias"
    raw_data: "…"
  }
  input {
    name: "image"
    type {
      tensor_type {
        elem_type: 1
        shape {
          dim {
            dim_value: 1
          }
          dim {
            dim_value: 1
          }
          dim {
            dim_value: 28
          }
          dim {
            dim_value: 28
          }
        }
      }
    }
  }
  output {
    name: "prediction"
    type {
      tensor_type {
        elem_type: 1
        shape {
          dim {
            dim_value: 1
          }
          dim {
            dim_value: 10
          }
        }
      }
    }
  }
}
opset_import {
  version: 13
}
